Namespace(basemodel='Conv64F', beta1=0.5, clamp_lower=-0.01, clamp_upper=0.01, cuda=True, data_name='miniImageNet', dataset_dir='/private/fewshot_datasets/mini-imagnet', episodeSize=1, episode_test_num=1000, episode_train_num=10000, episode_val_num=1000, epochs=30, imageSize=84, lr=0.0001, mode='train', nc=3, neighbor_k=3, ngpu=1, outf='./results/DM_SiameseNet_miniImageNet_Conv64F_5Way_5Shot_K3', print_freq=100, query_num=15, resume='', shot_num=5, testepisodeSize=1, way_num=5, workers=8)
FourLayer_64F(
  (features): Sequential(
    (0): Conv2d(3, 64, kernel_size=(3, 3), stride=(1, 1), padding=(1, 1), bias=False)
    (1): BatchNorm2d(64, eps=1e-05, momentum=0.1, affine=True, track_running_stats=True)
    (2): LeakyReLU(negative_slope=0.2, inplace=True)
    (3): MaxPool2d(kernel_size=2, stride=2, padding=0, dilation=1, ceil_mode=False)
    (4): Conv2d(64, 64, kernel_size=(3, 3), stride=(1, 1), padding=(1, 1), bias=False)
    (5): BatchNorm2d(64, eps=1e-05, momentum=0.1, affine=True, track_running_stats=True)
    (6): LeakyReLU(negative_slope=0.2, inplace=True)
    (7): MaxPool2d(kernel_size=2, stride=2, padding=0, dilation=1, ceil_mode=False)
    (8): Conv2d(64, 64, kernel_size=(3, 3), stride=(1, 1), padding=(1, 1), bias=False)
    (9): BatchNorm2d(64, eps=1e-05, momentum=0.1, affine=True, track_running_stats=True)
    (10): LeakyReLU(negative_slope=0.2, inplace=True)
    (11): Conv2d(64, 64, kernel_size=(3, 3), stride=(1, 1), padding=(1, 1), bias=False)
    (12): BatchNorm2d(64, eps=1e-05, momentum=0.1, affine=True, track_running_stats=True)
    (13): LeakyReLU(negative_slope=0.2, inplace=True)
  )
  (classifier): DM_SiameseNet_Metric(
    (fully_connect1): Linear(in_features=28224, out_features=1, bias=True)
    (Norm_layer): BatchNorm1d(10, eps=1e-05, momentum=0.1, affine=True, track_running_stats=True)
    (FC_layer): Conv1d(1, 1, kernel_size=(2,), stride=(1,), dilation=(5,), bias=False)
  )
)
===================================== Epoch 0 =====================================
Trainset: 10000
Valset: 1000
Testset: 1000
Eposide-(0): [100/10000]	Time 0.897 (0.904)	Data 0.001 (0.024)	Loss 1.610 (1.610)	Prec@1 16.000 (18.693)
Eposide-(0): [200/10000]	Time 0.793 (0.881)	Data 0.001 (0.012)	Loss 1.608 (1.609)	Prec@1 22.667 (21.512)
…
Eposide-(29): [9800/10000]	Time 0.730 (0.795)	Data 0.001 (0.001)	Loss 0.640 (0.434)	Prec@1 76.000 (83.718)
Namespace(basemodel='Conv64F', beta1=0.5, clamp_lower=-0.01, clamp_upper=0.01, cuda=True, data_name='miniImageNet', dataset_dir='../mini-imagnet', episodeSize=1, episode_test_num=1000, episode_train_num=10000, episode_val_num=1000, epochs=30, imageSize=84, lr=0.0001, mode='train', nc=3, neighbor_k=3, ngpu=1, outf='./results/DM_SiameseNet_miniImageNet_Conv64F_5Way_5Shot_K3', print_freq=100, query_num=15, resume='', shot_num=5, testepisodeSize=1, way_num=5, workers=8)
FourLayer_64F(
  (features): Sequential(
    (0): Conv2d(3, 64, kernel_size=(3, 3), stride=(1, 1), padding=(1, 1), bias=False)
    (1): BatchNorm2d(64, eps=1e-05, momentum=0.1, affine=True, track_running_stats=True)
    (2): LeakyReLU(negative_slope=0.2, inplace=True)
    (3): MaxPool2d(kernel_size=2, stride=2, padding=0, dilation=1, ceil_mode=False)
    (4): Conv2d(64, 64, kernel_size=(3, 3), stride=(1, 1), padding=(1, 1), bias=False)
    (5): BatchNorm2d(64, eps=1e-05, momentum=0.1, affine=True, track_running_stats=True)
    (6): LeakyReLU(negative_slope=0.2, inplace=True)
    (7): MaxPool2d(kernel_size=2, stride=2, padding=0, dilation=1, ceil_mode=False)
    (8): Conv2d(64, 64, kernel_size=(3, 3), stride=(1, 1), padding=(1, 1), bias=False)
    (9): BatchNorm2d(64, eps=1e-05, momentum=0.1, affine=True, track_running_stats=True)
    (10): LeakyReLU(negative_slope=0.2, inplace=True)
    (11): Conv2d(64, 64, kernel_size=(3, 3), stride=(1, 1), padding=(1, 1), bias=False)
    (12): BatchNorm2d(64, eps=1e-05, momentum=0.1, affine=True, track_running_stats=True)
    (13): LeakyReLU(negative_slope=0.2, inplace=True)
  )
  (classifier): DM_SiameseNet_Metric(
    (fully_connect1): Linear(in_features=28224, out_features=1, bias=True)
    (Norm_layer): BatchNorm1d(10, eps=1e-05, momentum=0.1, affine=True, track_running_stats=True)
    (FC_layer): Conv1d(1, 1, kernel_size=(2,), stride=(1,), dilation=(5,), bias=False)
  )
)
===================================== Epoch 0 =====================================
Namespace(basemodel='Conv64F', beta1=0.5, clamp_lower=-0.01, clamp_upper=0.01, cuda=True, data_name='miniImageNet', dataset_dir='../mini-imagenet', episodeSize=1, episode_test_num=1000, episode_train_num=10000, episode_val_num=1000, epochs=30, imageSize=84, lr=0.0001, mode='train', nc=3, neighbor_k=3, ngpu=1, outf='./results/DM_SiameseNet_miniImageNet_Conv64F_5Way_5Shot_K3', print_freq=100, query_num=15, resume='', shot_num=5, testepisodeSize=1, way_num=5, workers=8)
FourLayer_64F(
  (features): Sequential(
    (0): Conv2d(3, 64, kernel_size=(3, 3), stride=(1, 1), padding=(1, 1), bias=False)
    (1): BatchNorm2d(64, eps=1e-05, momentum=0.1, affine=True, track_running_stats=True)
    (2): LeakyReLU(negative_slope=0.2, inplace=True)
    (3): MaxPool2d(kernel_size=2, stride=2, padding=0, dilation=1, ceil_mode=False)
    (4): Conv2d(64, 64, kernel_size=(3, 3), stride=(1, 1), padding=(1, 1), bias=False)
    (5): BatchNorm2d(64, eps=1e-05, momentum=0.1, affine=True, track_running_stats=True)
    (6): LeakyReLU(negative_slope=0.2, inplace=True)
    (7): MaxPool2d(kernel_size=2, stride=2, padding=0, dilation=1, ceil_mode=False)
    (8): Conv2d(64, 64, kernel_size=(3, 3), stride=(1, 1), padding=(1, 1), bias=False)
    (9): BatchNorm2d(64, eps=1e-05, momentum=0.1, affine=True, track_running_stats=True)
    (10): LeakyReLU(negative_slope=0.2, inplace=True)
    (11): Conv2d(64, 64, kernel_size=(3, 3), stride=(1, 1), padding=(1, 1), bias=False)
    (12): BatchNorm2d(64, eps=1e-05, momentum=0.1, affine=True, track_running_stats=True)
    (13): LeakyReLU(negative_slope=0.2, inplace=True)
  )
  (classifier): DM_SiameseNet_Metric(
    (fully_connect1): Linear(in_features=28224, out_features=1, bias=True)
    (Norm_layer): BatchNorm1d(10, eps=1e-05, momentum=0.1, affine=True, track_running_stats=True)
    (FC_layer): Conv1d(1, 1, kernel_size=(2,), stride=(1,), dilation=(5,), bias=False)
  )
)
===================================== Epoch 0 =====================================
Trainset: 10000
Valset: 1000
Testset: 1000
Eposide-(0): [100/10000]	Time 0.854 (0.876)	Data 0.001 (0.030)	Loss 1.610 (1.610)	Prec@1 14.667 (16.449)
Eposide-(0): [200/10000]	Time 0.857 (0.891)	Data 0.001 (0.015)	Loss 1.613 (1.610)	Prec@1 14.667 (18.886)
…
