…
pisode_test_num=1000, episode_train_num=10000, episode_val_num=1000, epochs=30, imageSize=84, lr=0.0001, mode='test', nc=3, neighbor_k=3, ngpu=1, outf='./results/DM_SiameseNet_CubBird_Conv64F_5Way_5Shot_K3', print_freq=100, query_num=15, resume='./results/DM_SiameseNet_CubBird_Conv64F_5Way_5Shot_K3/model_best.pth.tar', shot_num=5, testepisodeSize=1, way_num=5, workers=8)
./results/DM_SiameseNet_CubBird_Conv64F_5Way_5Shot_K3/model_best.pth.tar
=> loaded checkpoint './results/DM_SiameseNet_CubBird_Conv64F_5Way_5Shot_K3/model_best.pth.tar' (epoch 1)
FourLayer_64F(
  (features): Sequential(
    (0): Conv2d(3, 64, kernel_size=(3, 3), stride=(1, 1), padding=(1, 1), bias=False)
    (1): BatchNorm2d(64, eps=1e-05, momentum=0.1, affine=True, track_running_stats=True)
    (2): LeakyReLU(negative_slope=0.2, inplace=True)
    (3): MaxPool2d(kernel_size=2, stride=2, padding=0, dilation=1, ceil_mode=False)
    (4): Conv2d(64, 64, kernel_size=(3, 3), stride=(1, 1), padding=(1, 1), bias=False)
    (5): BatchNorm2d(64, eps=1e-05, momentum=0.1, affine=True, track_running_stats=True)
    (6): LeakyReLU(negative_slope=0.2, inplace=True)
    (7): MaxPool2d(kernel_size=2, stride=2, padding=0, dilation=1, ceil_mode=False)
    (8): Conv2d(64, 64, kernel_size=(3, 3), stride=(1, 1), padding=(1, 1), bias=False)
    (9): BatchNorm2d(64, eps=1e-05, momentum=0.1, affine=True, track_running_stats=True)
    (10): LeakyReLU(negative_slope=0.2, inplace=True)
    (11): Conv2d(64, 64, kernel_size=(3, 3), stride=(1, 1), padding=(1, 1), bias=False)
    (12): BatchNorm2d(64, eps=1e-05, momentum=0.1, affine=True, track_running_stats=True)
    (13): LeakyReLU(negative_slope=0.2, inplace=True)
  )
  (classifier): DM_SiameseNet_Metric(
    (fully_connect1): Linear(in_features=28224, out_features=1, bias=True)
    (Norm_layer): BatchNorm1d(10, eps=1e-05, momentum=0.1, affine=True, track_running_stats=True)
    (FC_layer): Conv1d(1, 1, kernel_size=(2,), stride=(1,), dilation=(5,), bias=False)
  )
)
===================================== Round 0 =====================================
Testset: 1000-------------0
Test-(1): [100/1000]	Time 0.359 (0.388)	Loss 0.655 (0.533)	Prec@1 81.333 (81.452)
Test-(1): [200/1000]	Time 0.377 (0.380)	Loss 0.401 (0.544)	Prec@1 78.667 (81.459)
Test-(1): [300/1000]	Time 0.363 (0.387)	Loss 0.672 (0.554)	Prec@1 82.667 (81.094)
…
